weights/rbm_128_12_0.001_1.pt (torch, 406490 bytes, 3 tensors)

v f4 [1, 784]
-3.4240618 -1.1605252 -1.1704317 -1.5937927 -1.9742591 -1.9996635 -2.1891558 -1.2916465
-3.3996675 -3.3225567 -3.377085 -2.1744573 -2.9687746 -1.279558 -1.4340512 -3.0389743
-2.0262167 -1.1587349 -2.0675519 -1.9849398 -2.9638114 -2.4423718 -2.2791877 -1.8762754
-2.5815 -2.53473 -2.0200288 -2.5398448 -1.3198894 -2.4072163 -0.22540836 -2.2607226
-1.0725288 -1.7969561 -2.316122 -2.5478563 -3.3350976 -2.489124 -3.281733 -1.033657
-0.81315875 0.08340256 -1.368037 -0.8514553 -0.8782228 -0.8026738 -1.2382053 -0.5073616
-1.8831125 -0.7019968 -2.4604528 -2.063423 -3.3113377 -0.6582345 -2.8359344 -1.7770045
-3.419544 -2.5617447 -1.7523974 -3.2912698 -2.6032162 -1.720908 -0.9861778 -0.96450126
-1.658664 -1.2169895 -0.944617 -0.88916564 -1.4084175 -2.133823 -1.5434462 -0.87568396
-0.23949812 -2.184211 -2.401299 -3.2485104 -1.2225281 0.3182163 -2.575673 -0.42846853
-2.5760746 -3.623931 -1.6180815 -2.8097177 -0.6887148 -2.8167462 -1.6852534 -2.7647672
-1.7799306 -1.7425417 -0.18595977 0.894059 -1.2056304 -0.76885825 -2.1852818 -0.65909237
-1.1280643 -1.9554092 -1.5891551 -0.6060532 0.52324903 -1.999054 -1.6592913 -2.169375
-1.0634117 -0.71924394 -0.7389258 -0.6068723 -0.93819755 -0.6479922 -2.2765727 0.5802203
-2.1064408 -1.4467728 -1.906122 -2.39691 -1.7665691 -2.0191238 -2.239989 -0.84002596
-0.9998705 -0.8692179 0.05765326 -0.32467523 -0.6046705 -1.3115041 0.15872484 -1.1405194
-1.0248675 -1.0699439 -0.6182106 -1.8574431 -1.0912908 -1.9610981 0.34677225 -1.891174
-1.7421358 -1.5556483 -2.6687534 -0.43590415 -0.681259 -2.4691834 -1.5615698 -1.6697211
-2.0412748 -1.447318 -0.40670988 -0.088965245 -0.6495279 -1.2417917 -0.659472 -0.7838205
-1.7242484 0.55362046 -1.5828202 -1.212332 -0.1660869 -1.300118 -1.0782076 -0.69462746
-1.1884283 -0.9956731 -1.10625 -0.8714991 -2.7489696 -1.1984574 -1.7948924 -1.9437933
-1.9294546 -1.1682322 -1.3247747 -0.14856009 -3.0510743 -0.9056384 -2.1631181 -0.13957982
-0.93416417 -1.7085321 -2.1193304 -0.23925763 0.316732 -0.3596458 -2.0292969 -2.0167108
-1.54701 -1.3740529 -0.54530954 -0.116869584 -1.3019754 -0.48116946 -0.22571012 0.09667271
-0.7588574 0.079863414 -1.9136758 -1.0860538 -1.5713528 -4.131192 -1.6170833 -1.8661697
-0.3531757 0.09783059 -1.1630409 -2.3597279 -0.28904396 -1.7035949 -1.1779143 0.40240526
-1.1563084 -1.0367901 0.311943 -2.0390267 -0.69761974 -1.094646 -0.6316133 -0.43872505
0.12051022 0.5341865 -0.13913894 -0.46208954 -2.3718004 0.13921995 -1.4229043 -0.8251246
-3.6836622 -0.9315362 -1.375851 -0.630331 -0.6342275 -1.2384957 -0.36643803 -1.1474196
-0.09183683 -0.5783209 -0.062404986 -1.2636032 -1.0348698 -2.2610087 -1.3607574 -2.0165656
-1.8772719 -1.6895069 -2.0315032 -1.7266906 -0.14777808 -0.2079514 -0.69783527 0.2166684
-1.0640153 -0.6334908 -2.4459233 -2.2521555 -2.4935005 -2.0130768 -2.133057 -2.3267763
00000000: d423 5bc0 178c 94bf b5d0 95bf 6601 ccbf
00000010: 86b4 fcbf f9f4 ffbf 211b 0cc0 ac54 a5bf
00000020: 2794 59c0 c5a4 54c0 2922 58c0 4f2a 0bc0
00000030: 6700 3ec0 8ec8 a3bf fd8e b7bf 8e7e 42c0
00000040: 89ad 01c0 6d51 94bf c552 04c0 8212 febf
00000050: 16af 3dc0 d24f 1cc0 36de 11c0 cb29 f0bf
00000060: 4c37 25c0 0439 22c0 2748 01c0 d18c 22c0
00000070: 23f2 a8bf d50f 1ac0 73d1 66be aeaf 10c0
00000080: a048 89bf a802 e6bf 583b 14c0 1410 23c0
00000090: 3d72 55c0 cf4d 1fc0 ea07 52c0 df4e 84bf
000000a0: 2c2b 50bf f6ce aa3d d61b afbf f9f8 59bf
000000b0: 36d3 60bf 087c 4dbf 837d 9ebf 73e2 01bf
000000c0: d509 f1bf 10b6 33bf 0f78 1dc0 1f0f 04c0
000000d0: f5ec 53c0 0e82 28bf f37f 35c0 e274 e3bf
000000e0: cfd9 5ac0 a0f3 23c0 8f4e e0bf 2aa4 52c0
000000f0: 189b 26c0 b746 dcbf 2676 7cbf 8ee9 76bf
00000100: 1a4f d4bf 50c6 9bbf 6bd2 71bf 5ca0 63bf
00000110: 0647 b4bf 8e90 08c0 a58f c5bf d32c 60bf
00000120: ff3e 75be 1dca 0bc0 e2ae 19c0 98e7 4fc0
00000130: cd7b 9cbf 3fed a23e d4d7 24c0 3a60 dbbe
00000140: 68de 24c0 7cee 67c0 4b1d cfbf 6ad2 33c0
00000150: 9d4f 30bf 9245 34c0 62b6 d7bf f2f1 30c0
00000160: c4d4 e3bf 9b0b dfbf 3d6c 3ebe 0de1 643f
00000170: 1952 9abf e5d3 44bf a8db 0bc0 47ba 28bf
00000180: 6964 90bf d94a fabf 6f69 cbbf 4d26 1bbf
00000190: a6f3 053f 00e1 ffbf a863 d4bf 0ad7 0ac0
000001a0: e01d 88bf 5f20 38bf 3e2a 3dbf fc5b 1bbf
000001b0: b72d 70bf d1e2 25bf 5eb3 11c0 5189 143f
000001c0: edcf 06c0 da2f b9bf cefb f3bf f966 19c0
000001d0: f01e e2bf 5339 01c0 fb5b 0fc0 f10b 57bf
000001e0: 83f7 7fbf 1085 5ebf d325 6c3d d53b a6be
000001f0: b0cb 1abf 5edf a7bf c488 223e 8afc 91bf
00000200: dc2e 83bf ecf3 88bf 0d43 1ebf b2c0 edbf
00000210: 6baf 8bbf 4305 fbbf 228c b13e fd11 f2bf
00000220: 4efe debf 7c1f c7bf dbcc 2ac0 d42e dfbe
00000230: fd66 2ebf 1a07 1ec0 85e1 c7bf 6cb9 d5bf
00000240: 3fa4 02c0 b741 b9bf 473c d0be 6933 b6bd
00000250: 7647 26bf 08f3 9ebf 28d3 28bf 76a8 48bf
00000260: 2cb4 dcbf 12ba 0d3f da99 cabf b22d 9bbf
00000270: af12 2abe 446a a6bf b502 8abf 1bd3 31bf
00000280: 6b1e 98bf 6fe4 7ebf 9a99 8dbf 911a 5fbf
00000290: 1eef 2fc0 0d67 99bf 09bf e5bf 38ce f8bf
000002a0: 5ef8 f6bf a288 95bf 3892 a9bf 2320 18be
000002b0: cd44 43c0 ebd7 67bf 8770 0ac0 03ee 0ebe
000002c0: 6225 6fbf 2eb1 dabf 1ca3 07c0 f4ff 74be
000002d0: b22a a23e 7f23 b8be 00e0 01c0 ca11 01c0
000002e0: 6c04 c6bf f7e0 afbf 6899 0bbf 5259 efbd
000002f0: 21a7 a6bf d85b f6be 8e20 67be 57fc c53d
00000300: 7b44 42bf 6e8f a33d 54f3 f4bf d003 8bbf
00000310: 1722 c9bf ba32 84c0 96fc cebf a6de eebf
00000320: 72d3 b4be 685b c83d 86de 94bf c805 17c0
00000330: 92fd 93be 660f dabf e5c5 96bf 1008 ce3e
00000340: ea01 94bf 8ab5 84bf feb6 9f3e 6a7f 02c0
00000350: 3597 32bf 5c1d 8cbf 69b1 21bf 92a0 e0be
00000360: 10ce f63d 72c0 083f 707a 0ebe 0097 ecbe
00000370: 94cb 17c0 ad8f 0e3e ba21 b6bf 5e3b 53bf
00000380: 1fc1 6bc0 2879 6ebf e31b b0bf 5f5d 21bf
00000390: bc5c 22bf 0787 9ebf c49d bbbe a5de 92bf
000003a0: f314 bcbd d70c 14bf 5f9c 7fbd c0bd a1bf
000003b0: 9d76 84bf 5eb4 10c0 4c2d aebf 690f 01c0
000003c0: 724a f0bf c341 d8bf 2604 02c0 3304 ddbf
000003d0: 2353 17be 36f1 54be 55a5 32bf 52de 5d3e
000003e0: a731 88bf 742c 22bf 028a 1cc0 5123 10c0
000003f0: 8395 1fc0 40d6 00c0 0284 08c0 e7e9 14c0

h f4 [1, 128]
4.095408 4.491447 1.9227799 3.7185853 -1.3829612 3.266752 -1.0969279 -0.9010775
2.1410573 -0.80142236 0.39157438 -2.1936476 1.6659534 -1.2343366 -0.5104992 0.55056983
1.141495 1.835252 -1.3669127 0.86814916 -2.8016846 -0.4718546 -0.37847373 0.113879114
-0.734896 1.8307837 -0.04590931 2.4617307 3.3708823 2.2841034 1.1366436 -3.4802942
1.3848149 -1.1431854 4.266845 -2.347451 0.0007039125 1.0952204 -0.59975326 0.4869696
0.37237012 2.273012 1.9923998 0.117907636 -0.04565168 0.4884617 1.0265125 3.44582
-0.18557286 4.9881682 0.6922766 -0.45402128 -1.2420508 -1.035186 2.1772535 0.9013529
2.3330123 -0.6710959 0.50493443 -3.1821148 3.4482496 -0.44074553 1.6109673 1.5073217
-2.3992214 -0.4188544 2.413727 -0.753249 -0.11816186 -1.9392875 -1.7317578 3.9295378
1.3904676 0.5508619 0.036359157 0.8246056 2.657206 -0.89129287 0.9289866 -1.4004539
3.0929403 2.771059 0.46802583 -1.1410847 -1.3662658 1.7614217 1.4735892 0.50109524
3.9207027 -0.92612296 3.1618617 0.31383553 -0.67251265 -1.0345436 0.8372226 0.5016957
0.2625371 2.5215712 0.85495514 0.9119797 2.3602302 -0.31230336 -0.5003676 1.5844437
3.0505319 -1.821697 -1.7042189 2.3703325 1.9775934 -0.98910916 4.676457 -2.2280498
2.6604955 1.3197865 0.24372555 1.9438415 -0.75357586 -0.17522955 2.5922623 -0.27604082
0.1922141 -0.93820995 1.6693712 4.23227 -0.59082335 0.6850883 0.20049709 2.1097465
00000000: 950d 8340 efb9 8f40 a71d f63f 4dfd 6d40
00000010: df04 b1bf 7712 5140 2268 8cbf 04ad 66bf
00000020: 1507 0940 042a 4dbf 707c c83e b964 0cc0
00000030: f63d d53f befe 9dbf 13b0 02bf 25f2 0c3f
00000040: 821c 923f 8ae9 ea3f fff6 aebf 063f 5e3f
00000050: cd4e 33c0 ed96 f1be 4fc7 c1be 7439 e93d
00000060: 2522 3cbf 1f57 ea3f 670b 3cbd ff8c 1d40
00000070: 89bc 5740 c02e 1240 8a7d 913f 24bd 5ec0
00000080: 9d41 b13f e653 92bf ff89 8840 a33c 16c0
00000090: c586 383a 2f30 8c3f 6e89 19bf 1454 f93e
000000a0: 4ca7 be3e 0779 1140 f506 ff3f 8f79 f13d
000000b0: 42fd 3abd a717 fa3e c364 833f 5188 5c40
000000c0: d006 3ebe 139f 9f40 0a39 313f 7a75 e8be
000000d0: 85fb 9ebf fa80 84bf 1f58 0b40 10bf 663f
000000e0: 1350 1540 f1cc 2bbf 6243 013f c5a7 4bc0
000000f0: 1fb0 5c40 66a9 e1be 2d34 ce3f ebef c03f
00000100: d88c 19c0 1574 d6be 817a 1a40 edd4 40bf
00000110: d8fe f1bd 933a f8bf 3daa ddbf 8c7d 7b40
00000120: d8fa b13f 4905 0d3f 57ed 143d 5a19 533f
00000130: aa0f 2a40 c52b 64bf 11d2 6d3f 1342 b3bf
00000140: bcf2 4540 0859 3140 15a1 ef3e 100f 92bf
00000150: cce1 aebf 4476 e13f 929e bc3f c747 003f
00000160: cbec 7a40 6516 6dbf f15b 4a40 0daf a03e
00000170: ca29 2cbf ed6b 84bf 3854 563f 216f 003f
00000180: 436b 863e 6c61 2140 57de 5a3f 8077 693f
00000190: 030e 1740 3ae6 9fbe 1718 00bf 0dcf ca3f
000001a0: ea3b 4340 5e2d e9bf d823 dabf 87b3 1740
000001b0: c821 fd3f 4236 7dbf 89a5 9540 5e98 0ec0
000001c0: 8f45 2a40 c4ee a83f 3193 793e cccf f83f
000001d0: 59ea 40bf 606f 33be a0e7 2540 3955 8dbe
000001e0: c6d3 443e 872e 70bf f5ad d53f c16e 8740
000001f0: 3340 17bf f261 2f3f 1c4f 4d3e 1606 0740

W f4 [128, 784]
-1.5357912 -1.929733 -1.4917784 -1.7739413 0.31109542 -1.9954122 -1.9260088 -0.76658905
0.47191617 0.25289172 -1.9587355 -1.7848709 -2.3234313 -0.60980064 0.033620927 -1.5999482
0.6759342 -1.2587451 -0.37563884 -1.4062881 -2.4128118 0.12881818 -0.21374497 -1.5932401
-1.6085099 0.3642888 0.42540798 -0.92334574 -1.2928339 -1.6567641 0.07521201 -1.0282378
0.33627945 -0.3489115 -0.5034634 0.02463096 -1.3364878 -1.6851842 -0.9532734 -0.9923159
-0.6466937 -0.24525091 -1.6035715 -0.68692225 0.08361952 0.6746441 -0.8408398 -0.1130986
-0.90336835 -1.0275948 -2.592297 -1.8782314 -0.82717526 -1.0172068 -0.8196475 -0.8010879
-1.9579602 -2.6127763 -1.7929295 0.52718925 -0.7831436 -1.1565297 -0.1873426 -1.0538774
-2.3760555 -1.5818797 -1.7139535 -0.8167365 -0.31327242 -1.1335737 -0.17669325 -1.0457493
-0.67026937 -0.3452736 -1.1452976 -1.8234264 -0.3214485 -0.43980595 1.1903704 -0.76490414
1.360596 -0.89167845 0.25635067 -2.0929725 -1.54515 -1.1055952 -0.70666695 -1.6322598
-0.5139186 -0.7941855 -0.94962645 -2.1739337 -0.1371604 -0.80068076 -0.72457284 -1.1194624
-0.9794607 -1.2468141 -1.21403 -0.8270535 -0.58396125 -0.58195 -0.25064757 -0.45733944
-0.51400715 -0.87488544 -0.6276399 -1.7477436 -1.0168934 -1.0268918 0.18952724 -1.1053632
-1.1521126 -1.2555888 -0.5749857 -1.7215999 -0.03782089 -0.33917943 -2.5211158 -1.597729
-1.8174529 -1.1363258 -1.4869009 -0.84822786 -0.9833816 -1.2295016 -0.7268495 -0.8012093
-0.45132744 -0.032568466 -0.29823878 0.18482667 0.4095148 -0.30000842 -0.6746666 -0.28010485
-0.92591494 -1.8776491 -0.69206345 -0.8457176 -0.95026535 -0.46666518 -0.7907204 -0.6418425
-0.78897214 -0.9017212 -2.3227546 -1.7935289 -0.97878957 -1.1265966 -1.3046453 -1.094433
-0.9690307 -0.86042774 -0.5103094 -0.5574054 -0.5297358 -0.44539523 -0.0076810494 0.2102208
0.24708572 0.11291644 -0.5836186 0.020671593 -0.412826 -0.09927653 -0.0073923403 -2.8785844
-0.82463026 0.04437332 -0.30996993 -0.73704594 -0.758757 -1.8060671 -1.1317625 -1.112671
-0.8879737 -0.84869283 -0.8012751 -0.8496557 -0.59153765 -0.23590672 -0.04624874 -0.15645838
-0.18211858 -0.17179649 -0.28230426 -0.10912241 -0.16175093 -0.08024215 -0.9162861 -0.26467216
0.34491804 -0.37316832 -0.5687454 -1.8237036 0.7845632 -0.8327029 -1.9339999 -1.529423
-1.7500973 -1.5934589 -1.5247538 -0.9560808 -0.8204976 -0.695212 -0.4793389 -0.23390089
0.04605696 0.2799256 0.4286943 0.21364214 0.15032402 -0.083306685 -0.07458009 -0.27998677
-0.32612965 -0.050325286 0.40038043 0.3625104 0.5958081 -1.0653844 -0.3391429 -1.6031843
-0.580545 -0.9025074 -0.6014611 -1.575217 -1.9077778 -1.7648684 -1.4494783 -1.0237201
-0.8449137 -0.5609899 -0.14298783 0.36017567 0.61928785 0.48762745 0.3745895 0.31453058
0.4132785 0.065932944 -0.07757624 -0.33783868 -0.6186492 -0.37074703 -0.034274325 -0.03236562
0.09578301 0.35777736 0.3935513 -2.9396791 -0.27772895 -1.9045998 -1.150603 -2.504137
00000000: ce94 c4bf 7e01 f7bf 98f2 bebf 8210 e3bf
00000010: e647 9f3e ab69 ffbf 7587 f6bf 2e3f 44bf
00000020: ff9e f13e 067b 813e d8b7 fabf a676 e4bf
00000030: 19b3 14c0 e51b 1cbf 19b6 093d 1acb ccbf
00000040: 060a 2d3f 8f1e a1bf bc53 c0be 4001 b4bf
00000050: 826b 1ac0 eae8 033e f6df 5abe 4bef cbbf
00000060: a7e3 cdbf 1084 ba3e 13cf d93e 6360 6cbf
00000070: 957b a5bf d910 d4bf c108 9a3d 4c9d 83bf
00000080: d22c ac3e 87a4 b2be fae2 00bf dec6 c93c
00000090: 0812 abbf 1eb4 d7bf ba09 74bf 6a08 7ebf
000000a0: b88d 25bf 0e23 7bbe d541 cdbf 23da 2fbf
000000b0: b640 ab3d 7ab5 2c3f 4741 57bf 3da0 e7bd
000000c0: 2643 67bf 3a88 83bf 32e8 25c0 e369 f0bf
000000d0: c2c1 53bf d533 82bf 6bd4 51bf 1914 4dbf
000000e0: 719e fabf ba37 27c0 b77e e5bf e0f5 063f
000000f0: 197c 48bf 2a09 94bf bdd6 3fbe 74e5 86bf
00000100: 4b11 18c0 097b cabf d462 dbbf a515 51bf
00000110: 3e65 a0be f118 91bf 13ef 34be 1ddb 85bf
00000120: c696 2bbf b4c7 b0be 1d99 92bf 0966 e9bf
00000130: e694 a4be 3f2e e1be 0f5e 983f c2d0 43bf
00000140: 0228 ae3f 0a45 64bf 6540 833e 43f3 05c0
00000150: 7ac7 c5bf 2584 8dbf 20e8 34bf e4ed d0bf
00000160: 2b90 03bf be4f 4bbf b81a 73bf bb21 0bc0
00000170: c773 0cbe 6af9 4cbf 9b7d 39bf 8b4a 8fbf
00000180: f0bd 7abf 9b97 9fbf 5665 9bbf c7b9 53bf
00000190: 7c7e 15bf adfa 14bf e154 80be 6528 eabe
000001a0: f995 03bf 7ef8 5fbf 02ad 20bf 10b6 dfbf
000001b0: 9029 82bf 3171 83bf 6e13 423e 8b7c 8dbf
000001c0: 6d78 93bf 22b7 a0bf 4332 13bf 635d dcbf
000001d0: 14ea 1abd eda8 adbe f659 21c0 6282 ccbf
000001e0: 4ca2 e8bf 2073 91bf c552 bebf 7625 59bf
000001f0: e6be 7bbf 4f60 9dbf cf12 3abf 0d1c 4dbf
00000200: 6414 e7be 8366 05bd c1b2 98be 3443 3d3e
00000210: edab d13e b49a 99be f3b6 2cbf e769 8fbe
00000220: c308 6dbf ce56 f0bf 122b 31bf f380 58bf
00000230: 9744 73bf bdee eebe a76c 4abf ca4f 24bf
00000240: 14fa 49bf 33d7 66bf 03a8 14c0 5b92 e5bf
00000250: f491 7abf 5134 90bf 9efe a6bf 6116 8cbf
00000260: 6512 78bf fe44 5cbf a3a3 02bf 1fb2 0ebf
00000270: c49c 07bf d80a e4be 50b1 fbbb 1f44 573e
00000280: 0a04 7d3e bc40 e73d 0768 15bf 7957 a93c
00000290: ee5d d3be 7e51 cbbd 723b f2bb ba3a 38c0
000002a0: f81a 53bf ccc0 353d 61b4 9ebe 0baf 3cbf
000002b0: e63d 42bf 352d e7bf 98dd 90bf 016c 8ebf
000002c0: 3f52 63bf ef43 59bf 5d20 4dbf 0983 59bf
000002d0: 036f 17bf 8891 71be 526f 3dbd a036 20be
000002e0: 4b7d 3abe 6beb 2fbe 2f8a 90be 927b dfbd
000002f0: 09a2 25be ff55 a4bd ba91 6abf 1c83 87be
00000300: 1999 b03e eb0f bfbe 4c99 11bf 1f6f e9bf
00000310: 22d9 483f 042c 55bf 4f8d f7bf 22c4 c3bf
00000320: 3003 e0bf 76f6 cbbf 222b c3bf b6c1 74bf
00000330: 210c 52bf 6af9 31bf e96b f5be b783 6fbe
00000340: 39a6 3c3d 6952 8f3e d27d db3e 01c5 5a3e
00000350: 8aee 193e b29c aabd 72bd 98bd 6d5a 8fbe
00000360: 77fa a6be e321 4ebd aafe cc3e f79a b93e
00000370: e186 183f 845e 88bf 23a4 adbe 2535 cdbf
00000380: 999e 14bf ba0a 67bf 5bf9 19bf b6a0 c9bf
00000390: 1032 f4bf 35e7 e1bf 8188 b9bf 4309 83bf
000003a0: 444c 58bf 099d 0fbf 676b 12be f268 b83e
000003b0: a689 1e3f 4eaa f93e 32ca bf3e 270a a13e
000003c0: 3d99 d33e da07 873d 4be0 9ebd 31f9 acbe
000003d0: cb5f 1ebf 8ed2 bdbe 3c63 0cbd d091 04bd
000003e0: e229 c43d 982e b73e 8e7f c93e b423 3cc0
000003f0: 7d32 8ebe edc9 f3bf f646 93bf c843 20c0
