weights/rbm_128_12_0.001_1.pt (torch, 406490 bytes, 3 tensors)

v f4 [1, 784]
-3.4829385 -1.935578 -1.6748458 -0.8370953 -2.6550462 -2.7936308 -1.4034042 -1.921478
-2.0907035 -1.157965 -1.8687673 -2.719836 -1.0143608 -1.2502108 -2.3384883 -1.5965289
-1.4321227 -2.674854 -1.4144644 -3.0813656 -2.3143892 -1.7647414 -2.7984922 -1.9921645
-2.1613016 -0.90395576 -1.7859118 -1.1796877 -0.22788183 -3.5496356 -3.8539863 -1.233815
-0.7107948 -1.0563891 -2.8190663 -1.6842159 -1.3288856 -2.5319877 -1.871363 -1.8605433
-1.3065102 -2.002325 -1.4809574 1.3986201 -1.4414638 0.39380464 -1.3784734 -1.423682
-0.87045586 -2.3625262 -1.676255 -2.5016425 -0.74582815 -1.0037884 -0.89459044 -1.9871231
-3.0547338 -2.6488812 -2.056514 -2.913317 -1.4331157 -1.1930792 -1.560489 -0.8163647
-2.631159 -2.4226553 -0.21073407 -1.4429826 -0.6108093 -2.4765222 -2.441299 -2.2694426
-1.6230257 -0.9676571 -0.76143444 -2.2696848 -0.12153369 -1.1401988 -1.0816299 -0.98751366
-0.9767675 -1.6177782 -2.0468922 -3.228098 -2.0372043 -2.049059 -3.2542734 -2.9112725
-1.8713003 -1.518739 -1.5550811 -1.9356276 -1.3521191 -1.1378014 -1.4745574 -2.4281898
-2.680364 -1.7922493 -0.59841675 -3.2814176 0.7562711 -1.2738675 1.1230621 -1.1600424
-0.73920465 -1.820425 -0.8040696 -1.3886323 -1.9107581 -1.5214871 -1.6941098 -2.8668852
-1.9778533 -2.9180973 -2.8272822 -3.6818328 -1.980307 -2.030126 -0.28437123 -1.0663531
-0.37473613 -0.9560261 -0.42435437 -1.7728208 -1.1090003 -1.159876 -1.2167361 -1.4357008
-1.8783243 -0.32809672 -1.5786185 0.04963031 -0.074237905 -1.3353288 -0.82698494 -1.5692483
1.458649 -1.7775702 -2.9660778 -2.262974 -3.4622371 -2.7789574 -0.069868356 -0.99829113
-0.830545 -1.6932396 0.5781237 -0.6421782 -1.9595727 -1.894301 -0.04796161 -1.2555923
-1.2818643 -0.51116997 -2.4745324 -0.3269135 -1.1940304 -0.40011784 -1.9438202 -1.060067
0.1092343 -2.2490675 -1.1161324 -1.6841204 -1.2604318 -0.93627983 -0.46929497 -1.5094637
-1.8751329 -1.9804804 -1.0705686 -0.58226645 -0.4075381 -2.427126 -1.753145 -0.83031046
-1.2142622 -1.0175563 -0.726295 -0.9623108 -0.41509554 -1.6692019 -1.436647 -1.0442388
-0.18169527 -1.1559829 -2.123825 0.01048293 -1.1221575 0.007257973 -1.9229069 0.040097173
-1.9873469 -1.9008994 -0.21929577 -0.9328291 -1.3936715 -1.6970028 -1.9443514 -2.8426614
0.1850763 -1.0561602 -0.69023746 0.19744481 -0.22311364 -0.69423133 -1.7140932 -1.805914
-0.71932286 -0.05751729 -0.44356766 -0.83994097 0.11118831 -1.1162817 -0.88247347 -0.1716395
0.0757578 -1.078681 -1.6322896 -0.6089633 -0.83035505 -1.2670858 -1.3170766 -1.5737059
-4.1506543 -1.1994284 -0.5305016 -0.674429 -0.42944393 -1.174937 -0.34734073 -0.24734695
-0.8287754 -0.8383248 -1.6870993 -0.87886894 -1.9134685 -0.39821678 -0.42786783 -0.99207747
0.03654689 -0.37310344 0.25554782 -0.07182666 -0.06396152 -1.2034063 -1.7833995 -0.9175118
-0.3190984 -1.9823196 -2.1223016 -1.3013875 -2.1379023 -2.9872582 -3.5202363 -0.89557165
00000000: 77e8 5ec0 05c1 f7bf 5961 d6bf e14b 56bf
00000010: 47ec 29c0 d9ca 32c0 c0a2 b3bf fef2 f5bf
00000020: 16ce 05c0 3238 94bf c433 efbf cb11 2ec0
00000030: 93d6 81bf e806 a0bf cba9 15c0 0f5b ccbf
00000040: cc4f b7bf cf30 2bc0 2b0d b5bf 1835 45c0
00000050: f41e 14c0 0ce3 e1bf 7f1a 33c0 3fff febf
00000060: c452 0ac0 a569 67bf c298 e4bf 0200 97bf
00000070: db59 69be 3b2d 63c0 b6a7 76c0 a6ed 9dbf
00000080: a6f6 35bf c237 87bf 956b 34c0 6394 d7bf
00000090: ec18 aabf 160c 22c0 d388 efbf 4826 eebf
000000a0: ba3b a7bf 1826 00c0 0390 bdbf fc05 b33f
000000b0: e381 b8bf c3a0 c93e d171 b0bf 363b b6bf
000000c0: 32d6 5ebf a133 17c0 868f d6bf e91a 20c0
000000d0: 98ee 3ebf 237c 80bf e103 65bf 0d5a febf
000000e0: c280 43c0 4587 29c0 ed9d 03c0 c973 3ac0
000000f0: 5670 b7bf d2b6 98bf 1bbe c7bf 47fd 50bf
00000100: e964 28c0 c90c 1bc0 acca 57be a7b3 b8bf
00000110: 005e 1cbf 577f 1ec0 3e3e 1cc0 8c3e 11c0
00000120: 4ebf cfbf 60b8 77bf 5eed 42bf 8442 11c0
00000130: a8e6 f8bd 09f2 91bf d972 8abf b2cd 7cbf
00000140: 6f0d 7abf 5b13 cfbf 4800 03c0 2899 4ec0
00000150: 8e61 02c0 c823 03c0 0446 50c0 4a52 3ac0
00000160: c586 efbf 0a66 c2bf e60c c7bf a5c2 f7bf
00000170: 3d12 adbf 7aa3 91bf 4cbe bcbf 7667 1bc0
00000180: 158b 2bc0 6d68 e5bf d731 19bf bf02 52c0
00000190: fc9a 413f 170e a3bf 80c0 8f3f 457c 94bf
000001a0: 843c 3dbf b003 e9bf 81d7 4dbf b4be b1bf
000001b0: b993 f4bf 17c0 c2bf 97d8 d8bf 0c7b 37c0
000001c0: 4c2a fdbf 1bc2 3ac0 31f2 34c0 26a3 6bc0
000001d0: b37a fdbf 96ed 01c0 1b99 91be 427e 88bf
000001e0: 6add bfbe 20be 74bf fa44 d9be cbeb e2bf
000001f0: b9f3 8dbf d176 94bf 02be 9bbf 0bc5 b7bf
00000200: ee6c f0bf 4bfc a7be 2c10 cabf 2749 4b3d
00000210: 0b0a 98bd 0eec aabf 49b5 53bf 21dd c8bf
00000220: 03b5 ba3f 6c87 e3bf 38d4 3dc0 91d4 10c0
00000230: 4b95 5dc0 70da 31c0 2417 8fbd 0290 7fbf
00000240: 999e 54bf 13bc d8bf eaff 133f ca65 24bf
00000250: 47d3 fabf 7578 f2bf 6573 44bd 40b7 a0bf
00000260: 2114 a4bf 09dc 02bf bd5e 1ec0 3561 a7be
00000270: fdd5 98bf 3fdc ccbe 1acf f8bf 47b0 87bf
00000280: 3cb6 df3d b9f0 0fc0 6ddd 8ebf 4291 d7bf
00000290: d455 a1bf 09b0 6fbf 6e47 f0be 1b36 c1bf
000002a0: 5b04 f0bf 6280 fdbf 6408 89bf 6a0f 15bf
000002b0: d5a8 d0be 0856 1bc0 0e67 e0bf 3a8f 54bf
000002c0: f26c 9bbf 493f 82bf 78ee 39bf 005a 76bf
000002d0: 6787 d4be 68a8 d5bf 0de4 b7bf 9ea9 85bf
000002e0: 530e 3abe 3ff7 93bf c0ec 07c0 98c0 2b3c
000002f0: dba2 8fbf 4ad4 ed3b d021 f6bf ef3c 243d
00000300: 6261 febf ac50 f3bf 128f 60be e3cd 6ebf
00000310: d463 b2bf 6337 d9bf 82e0 f8bf 2aee 35c0
00000320: a484 3d3e 4230 87bf 67b3 30bf f92e 4a3e
00000330: e777 64be 25b9 31bf 6867 dbbf 3128 e7bf
00000340: 8b25 38bf 4097 6bbd 4d1b e3be 5f06 57bf
00000350: b2b6 e33d 52e2 8ebf c8e9 61bf 44c2 2fbe
00000360: e826 9b3d 3812 8abf deee d0bf 05e5 1bbf
00000370: 2692 54bf de2f a2bf f795 a8bf 326f c9bf
00000380: 29d2 84c0 df86 99bf f4ce 07bf 61a7 2cbf
00000390: 13e0 dbbe 5664 96bf a5d6 b1be 8548 7dbe
000003a0: a02a 54bf 749c 56bf dff2 d7bf 8efd 60bf
000003b0: 89ec f4bf 12e3 cbbe 7e11 dbbe caf8 7dbf
000003c0: 31b2 153d 6a07 bfbe 2ad7 823e db19 93bd
000003d0: 42fe 82bd 3809 9abf 6f46 e4bf 0ee2 6abf
000003e0: de60 a3be a6bc fdbf cad3 07c0 de93 a6bf
000003f0: 64d3 08c0 3d2f 3fc0 8d4b 61c0 2f44 65bf

h f4 [1, 128]
6.32484 0.18722261 -1.1076614 2.4531825 -1.7651299 1.2429355 3.0185401 0.54588026
-2.7967877 -3.3110344 1.1037065 3.5483222 -0.25843877 -0.53309107 -1.3506831 2.3479357
2.8158193 0.3619883 0.30234593 3.5213914 0.03880393 3.770975 3.7861881 1.0938238
-0.15484637 -2.4259212 3.9251342 -1.4748346 3.2821288 2.184071 -0.62409794 -1.2504852
2.4496303 -0.67090404 2.308575 -0.9604184 -0.36529335 -2.0091329 2.5333169 -0.6402168
-0.95516384 3.1931045 2.1538944 -2.4847124 -0.14576645 1.1860508 0.3418605 2.9734387
1.9432197 1.5300702 1.9187663 0.79092604 2.2526126 -0.46647394 2.3356476 -2.0475278
0.38587812 2.9771116 -1.6942158 -0.54832494 4.6242166 -0.077413924 1.500716 -1.2825178
2.476134 2.4149942 3.355199 -0.35863134 5.466883 -1.2696794 -0.35540485 4.254749
-3.2521007 -0.42873204 1.0362985 -0.9314045 -0.9677748 2.8248048 1.8861061 -0.44063178
-0.68735343 -1.3960475 -0.4462992 0.51973903 -1.4261304 2.2190363 0.10011743 -0.0010563589
1.2796282 1.5268611 2.4183955 3.0800147 -0.8973369 -1.8026714 1.0248023 -0.8882972
0.42405224 0.2400261 -0.43227637 1.5464244 -3.231555 0.6890123 0.30897918 0.9808724
1.0427523 -0.61028695 -0.094925016 -0.9103532 3.3778563 -0.19014016 0.40713328 2.283714
-2.2207646 3.2869825 2.508603 3.4421823 0.6956551 -0.36353412 3.8058977 3.0027306
-1.5067133 -1.5226454 -2.2797902 -2.6363077 -0.4988487 0.1432715 1.9067487 1.4590493
00000000: 1765 ca40 49b7 3f3e d9c7 8dbf f100 1d40
00000010: c7ef e1bf 8318 9f3f c32f 4140 cfbe 0b3f
00000020: 92fe 32c0 fde7 53c0 4146 8d3f b617 6340
00000030: 1652 84be a878 08bf 2fe3 acbf 9444 1640
00000040: 6236 3440 8856 b93e 16cd 9a3e 7a5e 6140
00000050: dff0 1e3d a857 7140 e850 7240 6b02 8c3f
00000060: 0c90 1ebe 4b42 1bc0 6635 7b40 61c7 bcbf
00000070: 660e 5240 d2c7 0b40 e2c4 1fbf e60f a0bf
00000080: bec6 1c40 5ec0 2bbf b1bf 1340 fbdd 75bf
00000090: bb07 bbbe a295 00c0 dd21 2240 40e5 23bf
000000a0: 9e85 74bf d35b 4c40 68d9 0940 8705 1fc0
000000b0: cd43 15be 83d0 973f 5708 af3e d24c 3e40
000000c0: 6cbb f83f 57d9 c33f 229a f53f 217a 4a3f
000000d0: ce2a 1040 acd5 eebe 407b 1540 b20a 03c0
000000e0: d191 c53e ff88 3e40 10dc d8bf 065f 0cbf
000000f0: 95f9 9340 318b 9ebd 7617 c03f 8b29 a4bf
00000100: fb78 1e40 448f 1a40 95bb 5640 879e b7be
00000110: b5f0 ae40 db84 a2bf a0f7 b5be e726 8840
00000120: 6b22 50c0 c482 dbbe 6ea5 843f 8670 6ebf
00000130: 17c0 77bf 9ac9 3440 ed6b f13f 7d9a e1be
00000140: 65f6 2fbf afb1 b2bf 5481 e4be 9e0d 053f
00000150: 718b b6bf b104 0e40 5e0a cd3d 8675 8aba
00000160: dbca a33f 2f70 c33f fec6 1a40 f61e 4540
00000170: dfb7 65bf f0bd e6bf b92c 833f 7267 63bf
00000180: 601d d93e 67c9 753e 5453 ddbe 3cf1 c53f
00000190: ccd1 4ec0 1c63 303f 8532 9e3e 741a 7b3f
000001a0: e878 853f c43b 1cbf 0c68 c2bd e80c 69bf
000001b0: cc2e 5840 1ab4 42be c673 d03e 5f28 1240
000001c0: 0221 0ec0 ec5d 5240 f48c 2040 b74c 5c40
000001d0: 7416 323f 2521 babe d493 7340 bd2c 4040
000001e0: fbdb c0bf 0be6 c2bf 15e8 11c0 44b9 28c0
000001f0: 1969 ffbe c4b5 123e 5710 f43f 21c2 ba3f

W f4 [128, 784]
-1.2776558 -0.9657048 -1.1042588 -1.3401332 0.82937783 -0.56846315 -0.056953147 -1.906646
-0.47169656 0.97727334 -1.0268506 0.7346199 -1.3434494 -0.8581494 0.8922931 0.010467709
-1.9692189 -0.44009304 -1.2519416 -0.57509357 -1.3063834 -0.8703454 0.44057631 -0.17313077
-0.6803738 -0.784413 -0.41724846 -1.122934 -1.5291959 -1.2463825 -0.7215879 -0.82612246
-0.65702957 -1.620754 -1.0751363 0.54939836 -1.0612874 -0.67985564 -1.4774377 0.56667805
-1.1568333 -1.178965 -0.7619124 -0.03725877 -1.1661032 -0.7460296 0.57813925 -0.7517934
-0.5150048 -1.7471501 -0.7062963 -1.6200162 1.1771657 -0.9096947 -1.9198499 -1.1479934
-0.6485411 -0.1448303 0.19022158 -1.3168821 -0.8360258 -0.84463304 -0.5447202 -1.5716606
-0.061714686 -0.99812573 -0.234707 -1.0123365 -0.3044262 0.123828456 -0.29720935 0.23788086
0.4833512 -0.14263067 0.52814776 -0.035042576 -0.63199246 -1.1830997 0.5773507 -0.39177132
-1.3343678 -1.5731647 -0.723954 -1.339337 -0.32173756 -1.5459616 -0.20997691 -1.3371316
-1.0113432 -1.8327808 -1.1787375 -1.4753047 -1.7322488 -0.8171333 -0.6536579 0.34931904
-1.2138498 -0.9661413 -0.70893985 0.18637711 0.5298532 0.29565254 -0.041919302 -1.2853634
-1.299491 -1.0338387 -1.5376334 -1.5713377 -2.4353464 -0.8277246 -0.24850687 -1.1614584
-1.2988827 -1.0265734 -0.2572203 0.81862724 -1.1273522 -0.57032925 -1.7650225 -2.3100002
-1.5144119 -1.3980578 -1.9143732 -1.016449 -1.3189609 -0.9294951 -0.11698074 0.22917719
0.5300586 0.25408345 -0.05406681 -0.6604456 -0.84726775 -0.38475093 -0.8454271 -0.9564621
-0.06639938 -0.47866932 -0.14771916 -0.87870085 -0.63688415 -1.1260102 -2.581619 -0.9902403
0.14478868 -0.55892843 -0.9634036 -1.2878699 -1.7841157 -1.2609274 -1.6675913 -1.5757005
-0.9182563 -0.21036442 0.29247388 0.53777117 0.8333698 0.3420012 0.077904314 -0.33694816
-0.28235152 -0.0925841 -0.036951147 -0.0014176072 0.14318514 0.4530716 -0.4002595 -0.9888603
-0.8029687 -1.1970516 -0.12751141 -0.45831236 -0.173716 -1.435009 -0.6376843 -0.52653414
-1.3779343 -1.5773414 -1.7572061 -1.4696817 -0.60403603 0.16413428 0.71320814 0.7992713
0.6149147 0.3212438 0.1215089 -0.1362167 -0.2413212 0.05087863 -0.044977974 -0.22239202
-0.056169804 -0.51724434 0.1424319 -2.139877 0.67971444 -0.77117497 -1.2726197 -1.8613546
-1.7701356 -1.1637151 -1.0161078 -1.2718483 -1.7623132 -2.2976615 -2.0903194 -1.2394094
-0.19448422 0.8455095 0.7611826 0.43933272 0.22307135 -0.105366044 -0.20503572 -0.2990984
-0.36753798 -0.21954279 -0.7916242 -0.89795566 -0.73914045 -0.9537938 -0.9609163 -1.3167056
-0.021476645 -0.054999918 0.399912 -1.6045144 -0.40295386 -2.030869 -1.56731 -2.5579557
-2.1956117 -2.3887663 -1.8189765 -0.75449127 0.7382729 1.0531902 0.5697715 -0.04895596
-0.57392573 -0.6736338 -0.48897934 -0.33871138 -0.3776582 -0.53929716 -0.94422513 -0.9911714
-1.2663726 -0.87482923 -1.764899 -0.23547292 -0.35785407 -1.0822995 -1.3359215 -1.6511298
00000000: 3a8a a3bf 6e38 77bf 5a58 8dbf 7c89 abbf
00000010: 1b52 543f cd86 11bf b447 69bd fa0c f4bf
00000020: 3682 f1be 962e 7a3f d76f 83bf 0d10 3c3f
00000030: 26f6 abbf aeaf 5bbf 526d 643f c180 2b3c
00000040: 5d0f fcbf e053 e1be 9f3f a0bf 5539 13bf
00000050: 9237 a7bf f5ce 5ebf 3893 e13e 3149 31be
00000060: fa2c 2ebf 4acf 48bf 97a1 d5be 4dbc 8fbf
00000070: b1bc c3bf 7689 9fbf fcb9 38bf c37c 53bf
00000080: 1733 28bf de74 cfbf 119e 89bf 5fa5 0c3f
00000090: 44d8 87bf 050b 2ebf ae1c bdbf d011 113f
000000a0: 1d13 94bf 53e8 96bf b10c 43bf a79c 18bd
000000b0: df42 95bf ccfb 3ebf ef00 143f 8875 40bf
000000c0: 5bd7 03bf 9da2 dfbf d6cf 34bf b15c cfbf
000000d0: 5ead 963f c0e1 68bf a4bd f5bf 73f1 92bf
000000e0: ca06 26bf 654e 14be 72c9 423e 988f a8bf
000000f0: c905 56bf df39 58bf c872 0bbf 2d2c c9bf
00000100: 8ac8 7cbd 2b85 7fbf 0857 70be 3e94 81bf
00000110: c0dd 9bbe c699 fd3d d32b 98be 0a97 733e
00000120: cf79 f73e c60d 12be b134 073f ce88 0fbd
00000130: 42ca 21bf d06f 97bf 41cd 133f 4096 c8be
00000140: 90cc aabf 765d c9bf 0d55 39bf 656f abbf
00000150: c9ba a4be 12e2 c5bf 3004 57be 2127 abbf
00000160: b273 81bf 9098 eabf dfe0 96bf c9d6 bcbf
00000170: 54ba ddbf a62f 51bf 2056 27bf f2d9 b23e
00000180: 6e5f 9bbf 0955 77bf 157d 35bf a4d9 3e3e
00000190: 76a4 073f c55f 973e 93b3 2bbd ca86 a4bf
000001a0: b955 a6bf d454 84bf 2cd1 c4bf 9821 c9bf
000001b0: b7dc 1bc0 c2e5 53bf 9678 7ebe abaa 94bf
000001c0: ca41 a6bf c266 83bf 61b2 83be 8e91 513f
000001d0: 144d 90bf 1901 12bf 42ec e1bf 0bd7 13c0
000001e0: 40d8 c1bf 8ff3 b2bf 2e0a f5bf 001b 82bf
000001f0: b6d3 a8bf 64f3 6dbf 9993 efbd 6dad 6a3e
00000200: ecb1 073f 3a17 823e 2975 5dbd f612 29bf
00000210: 8ae6 58bf 13fe c4be e96d 58bf b3da 74bf
00000220: 66fc 87bd 2514 f5be b143 17be 8af2 60bf
00000230: d70a 23bf 1a21 90bf 3f39 25c0 6380 7dbf
00000240: 7c43 143e ef15 0fbf 9ea1 76bf ecd8 a4bf
00000250: e75d e4bf 1266 a1bf a273 d5bf 8eb0 c9bf
00000260: d812 6bbf c569 57be 23bf 953e 5fab 093f
00000270: b957 553f c81a af3e 4c8c 9f3d 7884 acbe
00000280: 6190 90be bc9c bdbd 165a 17bd 01cf b9ba
00000290: 209f 123e 00f9 e73e d0ee ccbe f325 7dbf
000002a0: 5b8f 4dbf fd38 99bf 5a92 02be eba7 eabe
000002b0: 9be2 31be 60ae b7bf 473f 23bf f1ca 06bf
000002c0: 2760 b0bf 53e6 c9bf 21ec e0bf 881e bcbf
000002d0: 1ba2 1abf d112 283e cf94 363f 0b9d 4c3f
000002e0: 0d6b 1d3f 117a a43e a8d9 f83d 647c 0bbe
000002f0: e81c 77be 1c66 503d d33a 38bd bcba 63be
00000300: 4f12 66bd 206a 04bf abd9 113e bff3 08c0
00000310: c401 2e3f b96b 45bf 34e5 a2bf de40 eebf
00000320: ce93 e2bf 9ef4 94bf d20f 82bf edcb a2bf
00000330: 7b93 e1bf e30c 13c0 cbc7 05c0 f8a4 9ebf
00000340: df26 47be 5073 583f dddc 423f 38f0 e03e
00000350: d16c 643e 27ca d7bd e2f4 51be 6d23 99be
00000360: f02d bcbe d3cf 60be e2a7 4abf 6ce0 65bf
00000370: 4f38 3dbf d52b 74bf 9cfe 75bf cf89 a8bf
00000380: caef afbc 9847 61bd 44c1 cc3e ba60 cdbf
00000390: f84f cebe c2f9 01c0 9d9d c8bf 8cb5 23c0
000003a0: e784 0cc0 8ce1 18c0 39d4 e8bf 5726 41bf
000003b0: 74ff 3c3f f0ce 863f 8cdc 113f 0b86 48bd
000003c0: ccec 12bf 4473 2cbf 805b fabe 946b adbe
000003d0: 6a5c c1be 610f 0abf bdb8 71bf 69bd 7dbf
000003e0: 7f18 a2bf cff4 5fbf 36e8 e1bf d01f 71be
000003f0: a638 b7be ca88 8abf 7aff aabf 3958 d3bf
