weights/rbm_128_12_0.001_1.pt (torch, 406490 bytes, 3 tensors)

v f4 [1, 784]
-1.6716317 -4.057901 -1.7954077 -2.3465133 -2.1983926 -2.5251544 -0.80430746 -2.1912994
-1.4202025 -2.395264 -1.1092837 -1.274003 -1.5145222 -0.58500284 -2.3008564 -2.3943574
-1.7148682 -0.5660587 -1.8516414 -2.0769522 -1.8530017 -1.715862 -2.7956777 -2.655022
-2.4347513 -1.2713267 -0.11460185 -2.7599719 -2.4124088 -3.7259674 -2.4664392 -2.1314197
-3.753958 -0.986741 -1.7850223 -3.6587298 -1.7853646 -1.6243377 -2.1035228 -2.1607323
-1.8978599 -3.1099555 -0.5386349 -1.7159516 -1.1420236 -1.5460763 -2.1250298 -2.6889565
-1.833654 -2.525092 -1.906373 -0.6312696 -3.1226542 -1.0012741 -0.9884102 -3.1661134
-2.866547 -2.7623549 -0.77927 -3.3277955 -3.2166526 -1.9242564 -1.9320586 -3.1577132
-1.0241507 -1.4657116 -0.35785362 -1.2407734 -1.8733004 -1.1023442 -1.8538327 -1.1229941
-0.52554816 -0.97177327 -1.7575959 -2.2304885 -2.018692 -2.0161002 0.5474786 -0.69563735
-0.5908936 -0.9366134 -2.1354644 -2.442179 -1.8938708 -1.3319821 -2.719256 -2.3169844
-1.3463031 -0.9053917 -0.59357756 -0.48509702 -0.54618627 -1.81287 -0.69057065 -0.8407466
-0.42587104 -1.9346104 -2.828976 -1.8522011 -2.0874689 -2.0326858 -2.0216894 -0.99271315
-1.5403143 -0.9684047 -1.3911805 -2.3170145 -2.7887414 -1.0339385 -1.2802644 -2.2048535
-1.5968478 -2.528433 -2.1422193 -2.0664926 -1.828407 -2.0086415 -1.7093558 -1.1516523
-1.6730901 -1.3696415 -0.63504887 -0.7041914 -0.44969183 -1.3974013 -2.198526 -0.42208633
-1.2191784 -1.4538882 -2.7262475 -1.0572865 -0.7806772 -1.2017455 -0.9200949 -0.729532
-1.0371413 -1.3946313 -3.202273 -2.0477388 -1.5909967 -3.3346775 -1.3769058 -0.8323665
-1.9363402 -2.1772876 -1.3583744 -1.0503716 0.64432937 -1.1098665 -1.5746258 0.23761086
-1.6844056 -1.5453138 -1.1032673 -0.9465247 -1.8322902 -1.9242556 -2.2359235 -1.6360899
-1.1352899 -0.6407591 -2.1970088 -0.7295874 -1.6180155 -3.0693295 -1.3552622 -1.052465
-2.1795747 -2.6418464 -1.7549415 -0.5317594 -0.2380786 -0.6062548 -0.7380938 0.34564048
-0.37248805 -1.0623077 -0.7174202 0.518913 -0.19828573 -1.0015261 -0.8125827 -0.6745097
-0.8663231 -0.8662171 -1.4541194 -1.7142107 -0.5556722 -1.3352504 -1.6767772 -1.23693
-1.8146265 -3.0371733 -0.27669692 -1.3776809 -1.6068932 -2.8886893 -0.7053471 -1.2193028
-0.9460753 -0.060920537 -1.5227048 -1.5398657 -1.1648054 -0.8075662 -0.4959801 -0.0057145236
-0.9002216 0.2892248 -0.66068745 -1.3535271 -0.32751173 -0.5184135 -0.06202854 -0.25919116
-1.4016885 -0.5410251 -0.67739975 -1.7901528 -0.52155685 -1.792858 -0.49421802 -1.3545578
-0.79269886 -2.2189727 -1.2113689 -2.382423 -0.17001282 -1.213292 0.16451198 -1.5625322
-0.61765563 -1.061236 -0.8305221 -0.7323778 -0.23295462 0.5594952 -0.84167796 -0.57173383
-1.0264851 -0.22717795 -1.5845587 -1.0271971 -0.626179 -0.18020438 -0.40523937 0.13864838
-1.2105827 -2.2896812 -1.7859054 -0.7221377 -2.4636335 -0.45912108 -1.6825947 -1.1897508
00000000: 07f8 d5bf 53da 81c0 ebcf e5bf 462d 16c0
00000010: 77b2 0cc0 219c 21c0 18e7 4dbf 403e 0cc0
00000020: 32c9 b5bf 014c 19c0 02fd 8dbf 8812 a3bf
00000030: dddb c1bf bfc2 15bf 3b41 13c0 273d 19c0
00000040: cd80 dbbf 39e9 10bf 9602 edbf c9ec 04c0
00000050: 292f edbf 5ea1 dbbf 62ec 32c0 e1eb 29c0
00000060: f7d2 1bc0 d5ba a2bf 60b4 eabd 61a3 30c0
00000070: e864 1ac0 4076 6ec0 24da 1dc0 2e69 08c0
00000080: d940 70c0 0f9b 7cbf 9c7b e4bf a128 6ac0
00000090: d486 e4bf 4cea cfbf 1ea0 06c0 7049 0ac0
000000a0: 13ed f2bf 8309 47c0 fae3 09bf 4da4 dbbf
000000b0: d42d 92bf d4e5 c5bf 7d00 08c0 dd17 2cc0
000000c0: 2db5 eabf 1b9b 21c0 0804 f4bf e29a 21bf
000000d0: 91d9 47c0 c029 80bf 7308 7dbf 9aa1 4ac0
000000e0: 8275 37c0 6cca 30c0 3d7e 47bf 9afa 54c0
000000f0: a3dd 4dc0 094e f6bf b24d f7bf f917 4ac0
00000100: 5f17 83bf 709c bbbf 9738 b7be aad1 9ebf
00000110: 4fc8 efbf 9d19 8dbf 644a edbf 45be 8fbf
00000120: 538a 06bf 22c6 78bf e7f8 e0bf 53c0 0ec0
00000130: 4032 01c0 c907 01c0 8f27 0c3f 4a15 32bf
00000140: ce44 17bf e5c5 6fbf 73ab 08c0 a94c 1cc0
00000150: 5c6a f2bf 647e aabf 4a08 2ec0 7949 14c0
00000160: a953 acbf c0c7 67bf b3f4 17bf a35e f8be
00000170: ddd2 0bbf 200c e8bf 3dc9 30bf 2b3b 57bf
00000180: c50b dabe 50a1 f7bf f10d 35c0 ed14 edbf
00000190: 1799 05c0 8617 02c0 5c63 01c0 7322 7ebf
000001a0: 0529 c5bf 5fe9 77bf 3412 b2bf f749 14c0
000001b0: bd7a 32c0 1958 84bf b4df a3bf 521c 0dc0
000001c0: 8265 ccbf d9d1 21c0 1f1a 09c0 6a41 04c0
000001d0: 3e09 eabf 958d 00c0 2ccc dabf 5869 93bf
000001e0: d127 d6bf 6a50 afbf 9092 22bf e345 34bf
000001f0: 023e e6be 0cde b2bf a6b4 0cc0 b31b d8be
00000200: 0a0e 9cbf 0219 babf d77a 2ec0 2a55 87bf
00000210: 76da 47bf ccd2 99bf 578b 6bbf 9cc2 3abf
00000220: 0cc1 84bf 4783 b2bf 0af2 4cc0 270e 03c0
00000230: c8a5 cbbf 5b6b 55c0 733e b0bf f915 55bf
00000240: ffd9 f7bf ae58 0bc0 36df adbf 9472 86bf
00000250: c5f2 243f 1b10 8ebf 578d c9bf 4350 733e
00000260: 9a9a d7bf d8cc c5bf dd37 8dbf 714f 72bf
00000270: 7c88 eabf 024e f6bf 5f19 0fc0 656b d1bf
00000280: 2e51 91bf ca08 24bf cb9b 0cc0 3dc6 3abf
00000290: 221b cfbf e56f 44c0 3b79 adbf 2cb7 86bf
000002a0: 277e 0bc0 0314 29c0 eca1 e0bf 6221 08bf
000002b0: e0ca 73be 8433 1bbf b7f3 3cbf caf7 b03e
000002c0: c1b6 bebe b3f9 87bf daa8 37bf 7bd7 043f
000002d0: 6a0b 4bbe 0232 80bf 6b05 50bf abac 2cbf
000002e0: 5ac7 5dbf 67c0 5dbf 9620 babf 426b dbbf
000002f0: 8940 0ebf 7ce9 aabf a3a0 d6bf b953 9ebf
00000300: ae45 e8bf 0c61 42c0 38ab 8dbe d957 b0bf
00000310: adae cdbf 49e0 38c0 a191 34bf 1d12 9cbf
00000320: fe31 72bf d087 79bd fee7 c2bf 521a c5bf
00000330: 5818 95bf a9bc 4ebf 1bf1 fdbe e640 bbbb
00000340: ec74 66bf 4615 943e d022 29bf 6040 adbf
00000350: 9eaf a7be bfb6 04bf a311 7ebd b4b4 84be
00000360: 876a b3bf 9f80 0abf 126a 2dbf ba23 e5bf
00000370: c084 05bf 5f7c e5bf 250a fdbe 2662 adbf
00000380: 50ee 4abf a603 0ec0 230e 9bbf 9e79 18c0
00000390: d717 2ebe 274d 9bbf d475 283e 0e01 c8bf
000003a0: ae1e 1ebf 95d6 87bf 199d 54bf 1d7d 3bbf
000003b0: a88b 6ebe 143b 0f3f 3578 57bf 265d 12bf
000003c0: dd63 83bf 56a1 68be d2d2 cabf 327b 83bf
000003d0: 444d 20bf 7f87 38be 897b cfbe d7f9 0d3e
000003e0: 60f4 9abf 238a 12c0 8c98 e4bf 04de 38bf
000003f0: 2cac 1dc0 eb11 ebbe 435f d7bf c149 98bf

h f4 [1, 128]
2.908093 -1.3408971 -2.0524654 -1.5370622 1.7731513 0.6830499 2.368632 -0.8333057
0.41076937 -0.3570344 0.682435 -0.5928242 -0.74636155 -0.18419893 -0.39307314 0.24933742
-2.000394 2.49556 -1.1615204 -0.45311514 3.5491252 0.97885334 1.4495457 -1.0693138
-1.6169388 3.7969978 6.4122906 0.52884144 -0.1851883 -0.1519019 -0.076296024 2.3444011
2.0507238 0.9253367 -0.42199096 -2.2204278 4.78519 -1.2428055 -1.2173481 3.3337069
1.3906592 -1.5051085 0.9409844 0.4892388 1.0847054 -0.77129304 0.46781403 0.3812018
-1.3368956 -2.5139036 -1.0924819 0.32781288 1.3193645 -0.6906821 -1.3837667 -0.6746984
-1.0479661 2.197729 0.1319083 1.0767201 -0.65537184 0.30965745 0.683987 -0.8243546
-0.9334658 1.052684 -0.0012414306 1.8781704 3.4222763 -0.81789523 0.7022812 2.9200213
1.8638148 -0.04784065 1.4422057 1.823223 -0.2730218 -0.43653607 -0.32022813 1.026804
4.4833107 2.9167702 0.3445154 -0.7511399 1.5702541 0.17892563 -2.1281106 3.7192478
-1.3225803 -1.6643535 3.0742993 -1.3984382 1.4790076 -1.1960117 0.81549877 0.724429
1.3658109 1.51413 2.1350195 2.8803847 -1.0000806 -0.14644736 0.4988899 -1.2069855
1.0879765 -0.3801365 0.9377317 -0.74547464 -0.99947256 2.8188822 -0.05736973 -0.060225543
0.64627683 -1.2888088 -0.19601804 -1.0236881 1.1364585 -0.9410374 1.7717326 0.70122343
4.6223106 0.6972905 1.1303223 -1.6865185 -1.2654209 -1.4960603 1.6128657 -1.3862616
00000000: 321e 3a40 84a2 abbf 985b 03c0 74be c4bf
00000010: 9ff6 e23f 5cdc 2e3f ab97 1740 8653 55bf
00000020: 5d50 d23e 36cd b6be 0fb4 2e3f 54c3 17bf
00000030: 8d11 3fbf a59e 3cbe e240 c9be 4f52 7f3e
00000040: 7506 00c0 41b7 1f40 b3ac 94bf b5fe e7be
00000050: de24 6340 2296 7a3f b78a b93f 46df 88bf
00000060: daf7 cebf 0302 7340 7c31 cd40 2762 073f
00000070: 00a2 3dbe 2c8c 1bbe 1741 9cbd ab0a 1640
00000080: 0f3f 0340 dee2 6c3f 330f d8be 7d1b 0ec0
00000090: 4720 9940 4014 9fbf 10d2 9bbf 745b 5540
000000a0: 1f01 b23f 65a7 c0bf 5be4 703f 827d fa3e
000000b0: a0d7 8a3f 7673 45bf 5285 ef3e e22c c33e
000000c0: 651f abbf cce3 20c0 72d6 8bbf 17d7 a73e
000000d0: f0e0 a83f 8bd0 30bf 441f b1bf 09b9 2cbf
000000e0: c123 86bf 98a7 0c40 f812 073e f7d1 893f
000000f0: 73c6 27bf 6c8b 9e3e c619 2f3f e708 53bf
00000100: 9df7 6ebf 59be 863f 80b7 a2ba e367 f03f
00000110: 9306 5b40 9561 51bf b3c8 333f a1e1 3a40
00000120: 7c91 ee3f 8ff4 43bd 329a b83f 5f5f e93f
00000130: 83c9 8bbe a881 dfbe f1f4 a3be 506e 833f
00000140: 4877 8f40 5dac 3a40 5364 b03e b44a 40bf
00000150: 16fe c83f 4838 373e f732 08c0 2808 6e40
00000160: 504a a9bf 8909 d5bf 52c1 4440 0600 b3bf
00000170: 1f50 bd3f e916 99bf 87c4 503f 2e74 393f
00000180: e4d2 ae3f 03cf c13f 29a4 0840 3958 3840
00000190: a402 80bf 4cf6 15be 7f6e ff3e 807e 9abf
000001a0: d042 8b3f 40a1 c2be 2f0f 703f 6dd7 3ebf
000001b0: 6fdd 7fbf 9168 3440 86fc 6abd 0faf 76bd
000001c0: 6672 253f b0f7 a4bf f4b8 48be 3608 83bf
000001d0: 7977 913f d4e7 70bf 22c8 e23f 6183 333f
000001e0: f8e9 9340 a181 323f 67ae 903f d7df d7bf
000001f0: 50f9 a1bf e77e bfbf 6272 ce3f 0571 b1bf

W f4 [128, 784]
-1.1171637 -0.5048233 -0.54757154 0.23036227 -0.7368186 0.2895498 0.11815844 0.4160817
0.026175385 -0.99069226 -1.5748523 -1.4029676 -0.7057507 -1.9451401 -1.455327 0.73580945
-0.18517618 -0.8737059 -1.0324961 1.7759998 -1.4974921 -0.13702714 1.0645106 0.028326567
-0.9843189 -0.58690065 1.3535827 -2.4064772 -0.54280204 0.13660504 -2.1325102 -0.7481152
-0.6668744 -0.09722776 -0.21704195 -0.20195794 -0.044670478 -0.9227167 0.742335 -0.2843105
0.08510002 -0.40810022 0.034649707 -0.35765052 -0.76418686 0.8470211 -0.005422752 -0.8724625
-0.59568024 -1.6602614 -0.7775231 -2.779385 -2.0595965 -0.11575898 -0.2689699 -0.6738406
-1.0200167 -1.2295502 -0.9928577 -0.68982846 -1.7483072 -0.6675184 -3.0529082 0.30234587
-0.713838 0.7281594 1.4121827 -0.9302167 0.6835388 1.3626832 1.4207324 1.2551842
-0.4633461 -0.8256543 -1.1422377 -1.2815787 -0.9566029 -1.2413936 -2.6635642 -0.27700707
-0.5312923 -0.6149321 0.8480687 -0.8721696 0.72440076 -2.1386435 -0.56149447 -1.64879
-1.4824429 -0.7498456 -1.2578593 0.5588188 0.17648648 0.2539292 1.1055157 0.3325095
0.5993306 0.8231849 1.0100654 -0.08259653 -0.61661255 -1.3791143 -1.7469049 -1.7470262
-0.8088199 -1.292101 -1.6716831 0.12113342 -0.04928058 0.20533316 0.28967863 0.20345081
-1.4249824 -1.2015675 -0.5929206 0.46037748 -1.8439415 0.04953773 -0.61022097 0.26903218
0.6736515 0.66913956 1.3406513 0.95702076 1.2463865 1.2154241 0.3743786 -0.48047787
-1.540028 -1.7709827 -1.1588176 -1.1343874 -0.17664698 -0.42471766 0.78419375 -1.4389482
-0.024001326 -0.7262077 -1.6502109 -0.33927175 0.10733705 -1.1318514 -0.8392367 -1.7196696
-0.70715785 -1.372064 -0.68585885 -0.35837236 0.6243864 0.45448 1.2314773 1.2300504
1.4509845 0.59938365 -0.43884766 -1.3111417 -2.0638154 -1.9059701 -1.2353485 -0.80284464
-0.45190987 0.18381272 0.58298165 0.71951497 0.8277813 -0.16042246 -1.4720166 -0.7230453
-0.3252041 -1.8152726 -0.32154036 -1.3167884 0.23068893 0.9123832 -1.5757385 -0.51193136
0.45602292 0.82067496 1.2346481 1.1285362 1.0123063 0.10793358 -0.9215187 -1.540977
-1.8612225 -1.5523098 -1.2120681 -0.78946996 -0.2413575 -0.0017971213 0.10497414 1.10741
-0.19996586 -0.5705268 -0.23530161 -1.935093 -1.3275158 0.013999363 -1.5839834 0.9072475
-1.4157379 -0.88031805 -1.444284 -0.5171121 0.3043417 0.8341351 1.2126851 1.0624454
0.17319709 -0.81813353 -1.5679874 -1.691152 -1.4771175 -1.4191043 -1.1886706 -0.8074059
-0.55654114 0.12706655 0.7626861 0.8049175 0.23549716 -0.0035312336 -0.73153305 -1.21993
-0.8132443 -1.1930842 -0.42430088 -0.89684784 -1.5021688 -2.0680485 -1.5732356 -0.7117347
0.24145113 1.113113 1.2782604 0.53504854 -0.6269126 -1.5772704 -1.671411 -1.5133963
-1.1912664 -1.0070338 -0.9173739 -0.92276055 -0.3145892 0.038066514 0.44707742 0.16158049
-0.926448 -0.46877518 0.5731407 -1.3107369 -0.6801249 -0.55618054 -0.62460274 -2.1157677
00000000: 38ff 8ebf 1a3c 01bf a62d 0cbf 16e4 6b3e
00000010: 25a0 3cbf df3f 943e 0dfd f13d a908 d53e
00000020: c36d d63c 029e 7dbf c394 c9bf 7194 b3bf
00000030: 14ac 34bf 5afa f8bf 2848 babf 025e 3c3f
00000040: d39e 3dbe 31ab 5fbf d528 84bf f653 e33f
00000050: d2ad bfbf d850 0cbe e241 883f 1e0d e83c
00000060: 53fc 7bbf 1f3f 16bf 3342 ad3f b903 1ac0
00000070: 13f5 0abf 31e2 0b3e 0c7b 08c0 7a84 3fbf
00000080: 48b8 2abf 591f c7bd 3f40 5ebe 10ce 4ebe
00000090: 64f8 36bd 2937 6cbf ab09 3e3f 2591 91be
000000a0: eb48 ae3d 83f2 d0be daec 0d3d f81d b7be
000000b0: c0a1 43bf 60d6 583f 57b1 b1bb b459 5fbf
000000c0: 807e 18bf 7283 d4bf c10b 47bf 72e1 31c0
000000d0: 6ed0 03c0 0b13 edbd 6cb6 89be d180 2cbf
000000e0: e88f 82bf e761 9dbf ec2b 7ebf 9998 30bf
000000f0: 88c8 dfbf 7ce2 2abf d962 43c0 14cd 9a3e
00000100: 16be 36bf a868 3a3f 67c2 b43f af22 6ebf
00000110: 66fc 2e3f 676c ae3f 8fda b53f e0a9 a03f
00000120: b33b edbe 155e 53bf d834 92bf c50a a4bf
00000130: ede3 74bf fce5 9ebf d677 2ac0 dfd3 8dbe
00000140: c602 08bf 316c 1dbf 081b 593f 8246 5fbf
00000150: 5472 393f 89df 08c0 1abe 0fbf 8d0b d3bf
00000160: b0c0 bdbf e2f5 3fbf 8901 a1bf c00e 0f3f
00000170: dfb8 343e 0203 823e 8a81 8d3f af3e aa3e
00000180: bb6d 193f 3fbc 523f d349 813f 5f28 a9bd
00000190: 52da 1dbf d186 b0bf 949a dfbf 8e9e dfbf
000001a0: d20e 4fbf 9163 a5bf b6f9 d5bf cc14 f83d
000001b0: 6fda 49bd db42 523e c250 943e 6955 503e
000001c0: d365 b6bf f7cc 99bf a5c9 17bf 99b6 eb3e
000001d0: 4606 ecbf 13e8 4a3d 7137 1cbf 96be 893e
000001e0: 6d74 2c3f bb4c 2b3f 769a ab3f 50ff 743f
000001f0: 9889 9f3f 0493 9b3f 8dae bf3e 3201 f6be
00000200: a31f c5bf 90af e2bf 2354 94bf 9b33 91bf
00000210: f2e2 34be 9874 d9be ecc0 483f 742f b8bf
00000220: 6e9e c4bc bfe8 39bf 1c3a d3bf 07b5 adbe
00000230: 87d3 db3d 82e0 90bf 37d8 56bf 221e dcbf
00000240: 4c08 35bf cb9f afbf 7294 2fbf 957c b7be
00000250: cad7 1f3f 9ab1 e83e 0ca1 9d3f 4b72 9d3f
00000260: dcb9 b93f 3571 193f a4b0 e0be 7ed3 a7bf
00000270: 8d15 04c0 d4f6 f3bf e61f 9ebf 3a87 4dbf
00000280: bb60 e7be 6739 3c3e 493e 153f 2232 383f
00000290: 7ae9 533f c945 24be 0a6b bcbf 7f19 39bf
000002a0: 2781 a6be da5a e8bf f0a0 a4be 868c a8bf
000002b0: b839 6c3e f291 693f cdb1 c9bf ef0d 03bf
000002c0: d67b e93e c117 523f f308 9e3f e073 903f
000002d0: 4193 813f 480c dd3d a6e8 6bbf bc3e c5bf
000002e0: 8a3c eebf 16b2 c6bf 0c25 9bbf b41a 4abf
000002f0: 6c26 77be 628d ebba affc d63d 9cbf 8d3f
00000300: dac3 4cbe 0b0e 12bf e8f2 70be 21b1 f7bf
00000310: 0aec a9bf 965d 653c f8bf cabf 5f41 683f
00000320: e636 b5bf 865c 61bf 4cde b8bf 7561 04bf
00000330: add2 9b3e e189 553f 4439 9b3f 36fe 873f
00000340: 945a 313e 3371 51bf d0b3 c8bf ab77 d8bf
00000350: 3012 bdbf 36a5 b5bf 5c26 98bf 27b2 4ebf
00000360: 7b79 0ebf bc1d 023e 653f 433f 130f 4e3f
00000370: 2b26 713e 456c 67bb c045 3bbf ab26 9cbf
00000380: c730 50bf fcb6 98bf f73d d9be d297 65bf
00000390: 1147 c0bf e85a 04c0 c95f c9bf 3f34 36bf
000003a0: f73e 773e 7d7a 8e3f 099e a33f f1f8 083f
000003b0: 587d 20bf ffe3 c9bf ccf0 d5bf f8b6 c1bf
000003c0: 6b7b 98bf 7ce6 80bf 04d9 6abf 093a 6cbf
000003d0: d611 a1be a2eb 1b3d 55e7 e43e 5b75 253e
000003e0: b22b 6dbf 4d03 f0be 59b9 123f 3ac6 a7bf
000003f0: aa1c 2ebf d961 0ebf f7e5 1fbf bd68 07c0
